{"format": "graph-model", "generatedBy": "2.2.0", "convertedBy": "TensorFlow.js Converter v2.0.1.post1", "userDefinedMetadata": {"signature": {"inputs": {"flatten_21_input:0": {"name": "flatten_21_input:0", "dtype": "DT_FLOAT", "tensorShape": {"dim": [{"size": "-1"}, {"size": "28"}, {"size": "28"}]}}}, "outputs": {"Identity:0": {"name": "Identity:0", "dtype": "DT_FLOAT", "tensorShape": {"dim": [{"size": "-1"}, {"size": "10"}]}}}}}, "modelTopology": {"node": [{"name": "flatten_21_input", "op": "Placeholder", "attr": {"dtype": {"type": "DT_FLOAT"}, "shape": {"shape": {"dim": [{"size": "-1"}, {"size": "28"}, {"size": "28"}]}}}}, {"name": "StatefulPartitionedCall/sequential_23/flatten_21/Const", "op": "Const", "input": ["^flatten_21_input"], "attr": {"value": {"tensor": {"dtype": "DT_INT32", "tensorShape": {"dim": [{"size": "2"}]}}}, "dtype": {"type": "DT_INT32"}}}, {"name": "Func/StatefulPartitionedCall/input/_2", "op": "Const", "input": ["^flatten_21_input"], "attr": {"value": {"tensor": {"dtype": "DT_FLOAT", "tensorShape": {"dim": [{"size": "784"}, {"size": "64"}]}}}, "dtype": {"type": "DT_FLOAT"}}}, {"name": "Func/StatefulPartitionedCall/input/_4", "op": "Const", "input": ["^flatten_21_input"], "attr": {"value": {"tensor": {"dtype": "DT_FLOAT", "tensorShape": {"dim": [{"size": "64"}, {"size": "64"}]}}}, "dtype": {"type": "DT_FLOAT"}}}, {"name": "Func/StatefulPartitionedCall/input/_6", "op": "Const", "input": ["^flatten_21_input"], "attr": {"value": {"tensor": {"dtype": "DT_FLOAT", "tensorShape": {"dim": [{"size": "64"}, {"size": "64"}]}}}, "dtype": {"type": "DT_FLOAT"}}}, {"name": "Func/StatefulPartitionedCall/input/_8", "op": "Const", "input": ["^flatten_21_input"], "attr": {"value": {"tensor": {"dtype": "DT_FLOAT", "tensorShape": {"dim": [{"size": "64"}, {"size": "64"}]}}}, "dtype": {"type": "DT_FLOAT"}}}, {"name": "Func/StatefulPartitionedCall/input/_10", "op": "Const", "input": ["^flatten_21_input"], "attr": {"value": {"tensor": {"dtype": "DT_FLOAT", "tensorShape": {"dim": [{"size": "64"}, {"size": "10"}]}}}, "dtype": {"type": "DT_FLOAT"}}}, {"name": "StatefulPartitionedCall/sequential_23/flatten_21/Reshape", "op": "Reshape", "input": ["flatten_21_input", "StatefulPartitionedCall/sequential_23/flatten_21/Const"], "attr": {"Tshape": {"type": "DT_INT32"}, "T": {"type": "DT_FLOAT"}}}, {"name": "StatefulPartitionedCall/sequential_23/dense_61/MatMul", "op": "MatMul", "input": ["StatefulPartitionedCall/sequential_23/flatten_21/Reshape", "Func/StatefulPartitionedCall/input/_2"], "device": "/device:CPU:0", "attr": {"transpose_a": {"b": false}, "transpose_b": {"b": false}, "T": {"type": "DT_FLOAT"}}}, {"name": "StatefulPartitionedCall/sequential_23/dense_61/Relu", "op": "Relu", "input": ["StatefulPartitionedCall/sequential_23/dense_61/MatMul"], "attr": {"T": {"type": "DT_FLOAT"}}}, {"name": "StatefulPartitionedCall/sequential_23/dense_62/MatMul", "op": "MatMul", "input": ["StatefulPartitionedCall/sequential_23/dense_61/Relu", "Func/StatefulPartitionedCall/input/_4"], "device": "/device:CPU:0", "attr": {"T": {"type": "DT_FLOAT"}, "transpose_a": {"b": false}, "transpose_b": {"b": false}}}, {"name": "StatefulPartitionedCall/sequential_23/dense_62/Relu", "op": "Relu", "input": ["StatefulPartitionedCall/sequential_23/dense_62/MatMul"], "attr": {"T": {"type": "DT_FLOAT"}}}, {"name": "StatefulPartitionedCall/sequential_23/dense_63/MatMul", "op": "MatMul", "input": ["StatefulPartitionedCall/sequential_23/dense_62/Relu", "Func/StatefulPartitionedCall/input/_6"], "device": "/device:CPU:0", "attr": {"transpose_a": {"b": false}, "transpose_b": {"b": false}, "T": {"type": "DT_FLOAT"}}}, {"name": "StatefulPartitionedCall/sequential_23/dense_63/Relu", "op": "Relu", "input": ["StatefulPartitionedCall/sequential_23/dense_63/MatMul"], "attr": {"T": {"type": "DT_FLOAT"}}}, {"name": "StatefulPartitionedCall/sequential_23/dense_64/MatMul", "op": "MatMul", "input": ["StatefulPartitionedCall/sequential_23/dense_63/Relu", "Func/StatefulPartitionedCall/input/_8"], "device": "/device:CPU:0", "attr": {"T": {"type": "DT_FLOAT"}, "transpose_a": {"b": false}, "transpose_b": {"b": false}}}, {"name": "StatefulPartitionedCall/sequential_23/dense_64/Relu", "op": "Relu", "input": ["StatefulPartitionedCall/sequential_23/dense_64/MatMul"], "attr": {"T": {"type": "DT_FLOAT"}}}, {"name": "StatefulPartitionedCall/sequential_23/dense_65/MatMul", "op": "MatMul", "input": ["StatefulPartitionedCall/sequential_23/dense_64/Relu", "Func/StatefulPartitionedCall/input/_10"], "device": "/device:CPU:0", "attr": {"T": {"type": "DT_FLOAT"}, "transpose_a": {"b": false}, "transpose_b": {"b": false}}}, {"name": "StatefulPartitionedCall/sequential_23/dense_65/Softmax", "op": "Softmax", "input": ["StatefulPartitionedCall/sequential_23/dense_65/MatMul"], "attr": {"T": {"type": "DT_FLOAT"}}}, {"name": "Identity", "op": "Identity", "input": ["StatefulPartitionedCall/sequential_23/dense_65/Softmax"], "attr": {"T": {"type": "DT_FLOAT"}}}], "library": {}, "versions": {"producer": 175}}, "weightsManifest": [{"paths": ["group1-shard1of1.bin"], "weights": [{"name": "StatefulPartitionedCall/sequential_23/flatten_21/Const", "shape": [2], "dtype": "int32"}, {"name": "Func/StatefulPartitionedCall/input/_2", "shape": [784, 64], "dtype": "float32"}, {"name": "Func/StatefulPartitionedCall/input/_4", "shape": [64, 64], "dtype": "float32"}, {"name": "Func/StatefulPartitionedCall/input/_6", "shape": [64, 64], "dtype": "float32"}, {"name": "Func/StatefulPartitionedCall/input/_8", "shape": [64, 64], "dtype": "float32"}, {"name": "Func/StatefulPartitionedCall/input/_10", "shape": [64, 10], "dtype": "float32"}]}]}